best_mlp_model.pth (torch, 59348 bytes, 7 tensors)

layer_stack.0.weight f4 [128, 27]
0.2211989 0.0014973612 -0.024313115 0.07740091 -0.1389352 -0.081785366 -0.19556616 0.16358475
0.07137806 -0.12166531 -0.2634978 -0.19513285 -0.073094964 0.087032236 0.07197925 -0.11879058
0.17811088 0.04776968 0.17580809 0.08411875 0.049904566 -0.041409735 0.11586355 0.011110753
0.058940545 -0.10378974 -0.14782448 -0.21920687 -0.11995108 0.11507408 -0.13645518 0.059718337
0.14338037 0.029688448 -0.042192105 -0.121086456 -0.017938446 0.13278215 -0.10117329 0.17676179
0.08409974 -0.109831214 0.01698962 0.0685537 0.048407238 0.020657081 -0.10733004 0.1328771
-0.0028691494 0.016484628 -0.013111599 -0.045880284 0.0886495 -0.11531899 0.03693008 0.06502285
-0.26975602 -0.08213973 0.07075766 -0.017292507 -0.10464012 0.054134984 0.019157633 0.026818499
-0.11029793 0.18815881 -0.08860212 -0.23023522 -0.0047466042 0.06988037 -0.03727548 -0.08611232
-0.14863 -0.16620426 -0.16324691 -0.012960032 -0.21923421 0.08077297 -0.24215916 -0.10594642
-0.219901 0.31107992 -0.16932023 0.06868963 0.080996364 -0.0625133 0.012304075 0.022676107
-0.14233634 0.0063891285 -0.036618732 0.0046497285 0.036884293 0.16864067 0.0954039 0.12241545
-0.053375356 0.14605966 -0.03635057 -0.19531164 0.015576355 0.050614145 -0.033326756 -0.07726622
0.19594121 0.047289215 -0.06465105 0.047174864 0.025150122 0.047454968 -0.04636826 -0.05393117
0.08269949 -0.016092343 -0.094208315 0.09756739 -0.06554227 0.1302495 -0.13794766 0.1049538
0.123612165 -0.17281853 -0.18217555 -0.04511061 -0.10925865 -0.121930435 -0.19973996 -0.014527468
-0.20071866 -0.10452927 -0.24660836 -0.1260042 -0.04439494 -0.021583883 0.052324053 -0.050044075
0.22783418 -0.08905697 -0.14086719 -0.18388788 -0.23633419 0.08586325 -0.037037484 -0.0006314411
-0.24157263 -0.21927829 -0.22306675 0.18138847 -0.010055005 0.23168541 0.080461174 -0.012216178
-0.115441374 0.15102148 0.03177564 0.15249391 -0.0019786567 0.01016465 -0.04534807 -0.06488076
0.05674953 0.12197579 -0.2572419 -0.059978478 0.14090125 0.040042035 0.1592051 0.0939554
0.10839946 -0.04333802 0.013498576 0.028309815 0.0067944033 -0.16884358 0.07490816 -0.046264756
-0.18077204 0.02844256 0.049905725 0.013003898 -0.14277051 0.05625868 -0.12657075 -0.21345375
-0.018887335 -0.023649441 0.107328996 -0.043805182 0.038244307 -0.2933891 -0.06548307 0.16961847
-0.07122673 -0.07006821 0.09394112 0.08462617 0.20087713 -0.11215723 0.056763723 -0.111981235
-0.12999228 0.030753313 -0.15240228 0.06529942 0.03722679 -0.10763239 0.11539264 -0.012006616
-0.13421564 -0.08980817 -0.21968527 -0.20299095 -0.0900967 0.09870421 -0.13333282 -0.16429082
0.019023716 0.14180863 -0.10785522 0.14616562 -0.17165585 -0.0998762 -0.08741227 0.051655795
-0.03155403 0.016905664 -0.053249385 0.1297522 0.21689117 0.13710842 -0.05184913 0.12012208
0.018156096 -0.16438684 -0.30683565 -0.0986818 0.019829676 -0.1549186 -0.035025697 -0.12115052
-0.13618028 0.020782528 -0.10032959 0.2598994 -0.09029366 -0.026363796 -0.124873154 -0.0021324987
0.0108013535 -0.18449157 -0.09803419 0.064218745 0.09184604 -0.08778759 0.047436636 -0.17712627
00000000: f781 623e 1b43 c43a 4c2c c7bc 5e84 9e3d
00000010: 0745 0ebe 167f a7bd 7f42 48be c382 273e
00000020: a92e 923d a92b f9bd 2fe9 86be e8d0 47be
00000030: d0b2 95bd f53d b23d db69 933d 7a48 f3bd
00000040: b362 363e 24aa 433d 0907 343e 7446 ac3d
00000050: bb68 4c3d 419d 29bd de49 ed3d e009 363c
00000060: a46b 713d b78f d4bd 4d5f 17be c477 60be
00000070: e9a8 f5bd f6ab eb3d e8ba 0bbe 379b 743d
00000080: 4ed2 123e 3035 f33c a1d1 2cbd 2dfc f7bd
00000090: a6f3 92bc 0bf8 073e f133 cfbd 0b01 353e
000000a0: 7c3c ac3d 30ef e0bd d12d 8b3c e265 8c3d
000000b0: ab46 463d 0a39 a93c dacf dbbd ef10 083e
000000c0: 5708 3cbb c50a 873c 08d2 56bc f7ec 3bbd
000000d0: de8d b53d 5d2c ecbd ff43 173d b32a 853d
000000e0: 761d 8abe e038 a8bd 64e9 903d 04a9 8dbc
000000f0: 8f4d d6bd a5bc 5d3d 78f0 9c3c 78b2 db3c
00000100: e2e3 e1bd b4ac 403e 0775 b5bd c8c2 6bbe
00000110: 6789 9bbb 701d 8f3d 2cae 18bd a85b b0bd
00000120: 7632 18be 7331 2abe 332a 27be 5056 54bc
00000130: ef7e 60be 4d6c a53d 92f8 77be 70fa d8bd
00000140: ba2d 61be de45 9f3e 4862 2dbe 26ad 8c3d
00000150: 6ce1 a53d f906 80bd 0897 493c 3ec3 b93c
00000160: 9ec0 11be e55b d13b 86fd 15bd c05c 983b
00000170: fc13 173d 24b0 2c3e 1f63 c33d f4b4 fa3d
00000180: 1ea0 5abd aa90 153e 56e4 14bd c6ff 47be
00000190: f833 7f3c c750 4f3d a381 08bd c03d 9ebd
000001a0: d0a4 483e 56b2 413d c567 84bd 6e3a 413d
000001b0: a107 ce3c 2460 423d a5ec 3dbd eee6 5cbd
000001c0: 5a5e a93d 17d4 83bc 4af0 c0bd 69d1 c73d
000001d0: 073b 86bd 2060 053e 2742 0dbe 05f2 d63d
000001e0: 6028 fd3d 57f7 30be 3a8c 3abe e7c5 38bd
000001f0: 00c3 dfbd aab6 f9bd a288 4cbe 9e04 6ebc
00000200: 3189 4dbe 7113 d6bd e786 7cbe 3f07 01be
00000210: 78d7 35bd afd0 b0bc bf51 563d 04fb 4cbd
00000220: 5d4d 693e 8063 b6bd 7d3f 10be 1b4d 3cbe
00000230: 9701 72be 12d9 af3d 9eb4 17bd 4b87 25ba
00000240: d15e 77be 7d8a 60be 9c6b 64be e6bd 393e
00000250: bfbd 24bc f13e 6d3e d4c8 a43d 5d26 48bc
00000260: 876c ecbd 60a5 1a3e 2c27 023d 5d27 1c3e
00000270: 5aac 01bb a289 263c e6be 39bd 34e0 84bd
00000280: 3272 683d 71ce f93d 36b5 83be feab 75bd
00000290: 6b48 103e 1e03 243d a906 233e b06b c03d
000002a0: 8900 de3d 3583 31bd 2229 5d3c fce9 e73c
000002b0: 96a3 de3b 55e5 2cbe 7369 993d 1d80 3dbd
000002c0: 4e1c 39be 5f00 e93c f269 4c3d 4d0e 553c
000002d0: 6f32 12be 806f 663d c39b 01be 9f93 5abe
000002e0: 9db9 9abc 79bc c1bc 4ecf db3d 106d 33bd
000002f0: 10a6 1c3d 1937 96be fd1b 86bd 77b0 2d3e
00000300: 52df 91bd ec7f 8fbd 3464 c03d 7c50 ad3d
00000310: bcb2 4d3e b1b2 e5bd 1481 683d 6b56 e5bd
00000320: b21c 05be 5fee fb3c 580f 1cbe b4bb 853d
00000330: 1e7b 183d 5f6e dcbd fa52 ec3d 66b7 44bc
00000340: d36f 09be 59ed b7bd 2df5 60be dcdc 4fbe
00000350: 9e84 b8bd 6f25 ca3d 6688 08be da3b 28be
00000360: a0d7 9b3c 4836 113e 33e3 dcbd 71ac 153e
00000370: 8dc6 2fbe e58b ccbd 3405 b3bd 0795 533d
00000380: cc3e 01bd bf7d 8a3c 071c 5abd c3dd 043e
00000390: b818 5e3e 2666 0c3e c15f 54bd 9102 f63d
000003a0: 18bc 943c 0655 28be 9019 9dbe af19 cabd
000003b0: d871 a23c fba2 1ebe 1b77 0fbd c41d f8bd
000003c0: d872 0bbe 1f40 aa3c 9a79 cdbd 8911 853e
000003d0: e2eb b8bd e3f8 d7bc 7fbd ffbd 64c1 0bbb
000003e0: 29f8 303c 5ceb 3cbe 26c6 c8bd 1e85 833d
000003f0: c719 bc3d fbc9 b3bd eb4c 423d 9760 35be

layer_stack.0.bias f4 [128]
-0.21921588 0.110909544 -0.09333883 -0.07868179 0.16271268 -0.19912075 0.080266476 0.18127683
-0.008731348 0.018416347 -0.074747436 0.054558042 0.0870654 -0.2593041 -0.25105795 0.1251489
0.21368663 -0.047236133 -0.27712318 -0.19296314 -0.25638336 0.15936548 -0.16711633 -0.26504174
0.24868767 -0.16755575 -0.09269261 -0.15103675 -0.21201536 -0.12705663 0.008840376 0.010475985
-0.111408874 0.1311374 -0.14669546 -0.23452383 -0.14409956 0.035710555 0.016618466 -0.13450225
-0.19950278 0.15947254 0.15679882 -0.27271205 0.21748045 0.026919313 -0.24071926 -0.027392812
0.022841275 -0.044481423 0.113615595 -0.038561095 -0.11260029 0.057305243 -0.18990448 0.11758985
0.26341954 0.082900524 -0.20128249 0.16311182 0.16706707 0.015541446 -0.05180477 0.23321387
-0.13598329 -0.14104597 -0.18732595 -0.035779133 -0.10336969 -0.116638556 -0.15722594 0.20005594
0.115838476 0.19478989 0.13951759 -0.016833514 0.0879831 -0.062491156 -0.013294001 -0.17616855
-0.10343202 0.17628278 0.1592224 0.31070864 0.17504536 0.08632114 0.21623215 0.2222226
0.07776199 0.09615615 0.14224969 0.21099387 -0.3039479 0.17605492 0.22254671 0.005769303
0.0013823854 -0.09694424 -0.027630487 -0.19211195 -0.06959369 -0.09864155 -0.25876063 0.10292898
-0.005175551 -0.07723364 -0.24403098 -0.03708228 -0.08588116 0.15953587 -0.1557364 0.21216123
-0.20586157 -0.29514968 -0.023644889 0.23347788 0.068743825 -0.1157678 -0.18969515 0.01143985
-0.04207008 -0.026870444 0.06848629 0.12153625 0.19417128 -0.22391361 0.13960564 0.11600598
00000000: 217a 60be 8b24 e33d 6e28 bfbd eb23 a1bd
00000010: 279e 263e 4fe6 4bbe c062 a43d a2a0 393e
00000020: ee0d 0fbc e1dd 963c 2f15 99bd 4178 5f3d
00000030: 584f b23d 82c3 84be ab8a 80be 0927 003e
00000040: abd0 5a3e ad7a 41bd 17e3 8dbe 2198 45be
00000050: ae44 83be b430 233e 8b20 2bbe 8db3 87be
00000060: fba7 7e3e bc93 2bbe a0d5 bdbd 61a9 1abe
00000070: 8e1a 59be 221b 02be 39d7 103c 77a3 2b3c
00000080: 562a e4bd e248 063e 5637 16be 0427 70be
00000090: d68e 13be 3b45 123d 7323 883c f5ba 09be
000000a0: 754a 4cbe c54c 233e df8f 203e eaa0 8bbe
000000b0: 32b3 5e3e e485 dc3c 1c7f 76be e466 e0bc
000000c0: a01d bb3c 2732 36bd 4baf e83d 3df2 1dbd
000000d0: fb9a e6bd e7b8 6a3d 5276 42be f3d2 f03d
000000e0: edde 863e c0c7 a93d ff1c 4ebe c906 273e
000000f0: a113 2b3e 8da1 7e3c 3d31 54bd 9ecf 6e3e
00000100: 343f 0bbe 5b6e 10be 60d2 3fbe 248d 12bd
00000110: 7db3 d3bd 32e0 eebd d6ff 20be 77db 4c3e
00000120: b93c ed3d 0077 473e b3dd 0e3e 70e6 89bc
00000130: 7c30 b43d baf6 7fbd 15cf 59bc 8765 34be
00000140: 2bd4 d3bd 7983 343e 320b 233e 3415 9f3e
00000150: 173f 333e 23c9 b03d f66b 5d3e 528e 633e
00000160: ae41 9f3d 84ed c43d e7a9 113e c70e 583e
00000170: 0f9f 9bbe be47 343e 49e3 633e 6c0c bd3b
00000180: 2831 b53a b48a c6bd 5559 e2bc ffb8 44be
00000190: 2387 8ebd 9504 cabd 467c 84be 6ecc d23d
000001a0: ab97 a9bb ac2c 9ebd 42e3 79be 97e3 17bd
000001b0: 76e2 afbd 5f5d 233e 5d79 1fbe cb40 593e
000001c0: 60cd 52be dc1d 97be edb2 c1bc d314 6f3e
000001d0: 90c9 8c3d ab17 edbd 723f 42be 356e 3b3c
000001e0: ad51 2cbd 681f dcbc 8a42 8c3d ffe7 f83d
000001f0: d6d4 463e 9c49 65be c8f4 0e3e 8b94 ed3d

layer_stack.3.weight f4 [64, 128]
0.016224086 0.05989593 0.05581413 0.014130994 -0.013616027 -0.04705536 0.06331098 0.061554126
-0.007782098 -0.0243391 -0.08533268 -0.013491878 0.061988592 0.067580275 -0.13944146 0.0009901677
0.03387625 -0.011248685 -0.010192888 -0.0815731 -0.043326113 -0.018301941 -0.039844114 -0.01960246
-0.03171606 -0.02983015 0.03920161 -0.046568505 0.09895814 -0.0053095645 -0.00363384 -0.011797116
0.06279005 0.07536772 0.027946904 -0.011285054 0.10403765 0.06553593 0.09621071 -0.032554653
-0.08281571 0.019455688 0.005404493 -0.0067129955 -0.004546364 -0.010826229 -0.00839052 0.045502957
0.039746113 -0.052966196 0.001184425 -0.027632246 0.00057700905 0.073357396 -0.1483598 -0.062085293
0.019562475 0.048507247 -0.09888011 -0.014352257 0.044572894 -0.024623025 0.03954183 0.014450362
0.06270815 -0.056988664 -0.0753709 -0.06510426 -0.018033955 0.035490464 -0.05833784 0.081281945
0.019578809 0.034264673 -0.035284564 0.045534704 -0.004936764 0.0019622776 0.03113359 -0.093713954
-0.17190483 0.0065954057 0.014847512 -0.0030994834 -0.04082577 -0.07688938 -0.0055887816 -0.0077856346
-0.011895367 0.020172087 0.026835414 0.01707658 -0.02588867 0.016337397 0.014778921 0.048081625
-0.108329974 -0.044374846 0.051386144 -0.009942809 -0.018161695 0.06622067 -0.023185372 -0.053614955
0.030469764 -0.014924896 -0.079432026 0.0123585835 -0.047448765 -0.0057864357 0.074044935 0.089520276
-0.086944364 -0.15297553 -0.15625928 -0.054247282 0.018051077 0.056214355 0.040470637 0.0067338753
0.0719236 -0.009566707 -0.004025649 0.0327055 0.056790955 -0.10656768 0.039574403 0.08315282
0.017688585 -0.020120544 -0.040820614 -0.050149813 0.010593153 -0.006833406 -0.010232514 0.044912357
0.032670554 -0.011095484 -0.051736526 -0.036565166 -0.016209386 0.034028348 0.03277966 0.013750175
-0.031140234 -0.025776708 -0.0020448146 0.019797247 0.0012747167 0.00616279 -0.11413168 -0.12447693
0.045204297 -0.08856245 -0.064687125 -0.0055787493 -0.019508433 -0.07544923 -0.045615103 -0.0037774008
0.049514778 0.09677113 -0.01894062 -0.0940715 0.0915451 0.057338733 -1.2810059e-05 0.05829021
0.063686736 -0.0014519987 -0.031302653 -0.034712695 0.0723407 0.07031878 0.02058287 0.05511996
-0.040164977 -0.025482308 -0.08158343 -0.0065634428 0.009972222 0.036185976 -0.030128485 0.038500443
0.032668028 0.07127327 -0.017949034 0.07388152 0.06483727 -0.014903003 0.03260025 -0.055809353
-0.0061153807 -0.05290348 -0.05916866 -0.019714516 -0.059354518 0.050810825 0.018831374 0.08663016
-0.0070035285 -0.06148603 -0.1071264 -0.054171663 -0.06855998 0.06908855 -0.030233555 0.006280207
-0.13834079 -0.056048278 0.1159991 0.025933292 -0.01713414 0.03778061 -0.07491394 -0.0119609805
0.109765194 0.0032120442 0.03773809 -0.042926855 0.024484873 0.086618 0.023701347 0.06245464
-0.011678937 -0.0112349205 -0.012811061 0.0120938 -0.026594229 0.05466215 -0.09429693 0.1204606
-0.04718644 -0.033386163 -0.048340835 0.072703116 0.013253185 0.0043936996 0.04014774 -0.0008777313
-0.08511506 -0.07593434 -0.059095785 0.048278343 -0.060631804 -0.06211545 -0.008229666 -0.0132084675
-0.035801414 0.01345201 0.029623667 -0.004565816 0.0038831336 -0.08739665 0.045457266 -0.03159107
00000000: 60e8 843c 6f55 753d 5b9d 643d af85 673c
00000010: c215 5fbc 1fbd 40bd 30a9 813d 2e20 7c3d
00000020: f800 ffbb cb62 c7bc e6c2 aebd 0a0d 5dbc
00000030: c0e7 7d3d 8767 8a3d bec9 0ebe 84c8 813a
00000040: d3c1 0a3d 684c 38bc 1200 27bc cc0f a7bd
00000050: b976 31bd f4ed 95bc 9533 23bd 5795 a0bc
00000060: b3e8 01bd 5c5e f4bc de91 203d 9ebe 3ebd
00000070: 91aa ca3d dbfb adbb b825 6ebb b148 41bc
00000080: 1298 803d 645a 9a3d e8f0 e43c f2e4 38bc
00000090: b111 d53d b437 863d 1f0a c53d 0758 05bd
000000a0: 489b a9bd 8961 9f3c 2c18 b13b b0f8 dbbb
000000b0: aaf9 94bb 7f60 31bc 6478 09bc 4f61 3a3d
000000c0: d2cc 223d 15f3 58bd b53e 9b3a 055d e2bc
000000d0: 6c42 173a 673c 963d a2eb 17be 264d 7ebd
000000e0: 7c41 a03c 89af 463d a881 cabd bb25 6bbc
000000f0: 1192 363d 3ab6 c9bc 9df6 213d 36c1 6c3c
00000100: 216d 803d f26c 69bd 0f5c 9abd 6255 85bd
00000110: f2bb 93bc 735e 113d a9f3 6ebd 2677 a63d
00000120: bd63 a03c 1d59 0c3d 8c86 10bd 9982 3a3d
00000130: 94c4 a1bb 8e99 003b df0b ff3c 1aed bfbd
00000140: d207 30be 461e d83b fb42 733c b420 4bbb
00000150: ec38 27bd 2e78 9dbd 1922 b7bb a31e ffbb
00000160: c9e4 42bc ef3f a53c f1d5 db3c 2fe4 8b3c
00000170: 7a14 d4bc 01d6 853c 4a23 723c 3df1 443d
00000180: 1bdc ddbd 66c2 35bd 477a 523d 2ae7 22bc
00000190: d6c7 94bc b49e 873d 40ef bdbc 5b9b 5bbd
000001a0: ba9b f93c 8d87 74bc 42ad a2bd a87b 4a3c
000001b0: a359 42bd 249c bdbb dfa4 973d 6856 b73d
000001c0: e30f b2bd 9ea5 1cbe 6f02 20be 6632 5ebd
000001d0: dadf 933c 0641 663d 8ac4 253d d7a7 dc3b
000001e0: ae4c 933d adbd 1cbc 97e9 83bb 34f6 053d
000001f0: a29d 683d 2840 dabd c518 223d 074c aa3d
00000200: a7e7 903c d7d3 a4bc 8433 27bd e469 4dbd
00000210: e78e 2d3c c4ea dfbb 46a6 27bc 05f6 373d
00000220: 8fd1 053d d5c9 35bc aee9 53bd 5bc5 15bd
00000230: 8cc9 84bc 4f61 0b3d f743 063d 6a48 613c
00000240: ce19 ffbc ad29 d3bc 4c02 06bb d62d a23c
00000250: 6514 a73a 3bf1 c93b dfbd e9bd c3ed febd
00000260: 2428 393d 3b60 b5bd af7a 84bd f1cd b6bb
00000270: 26d0 9fbc 2085 9abd e7d6 3abd 458e 77bb
00000280: 02d0 4a3d f12f c63d 5c29 9bbc 8fa8 c0bd
00000290: ff7b bb3d 05dc 6a3d c9ea 56b7 b7c1 6e3d
000002a0: 316e 823d fe50 beba 3637 00bd e62e 0ebd
000002b0: 5c27 943d 4b03 903d 689d a83c 78c5 613d
000002c0: 0884 24bd 46c0 d0bc 3715 a7bd 2612 d7bb
000002d0: 8862 233c bf37 143d 03d0 f6bc a4b2 1d3d
000002e0: e9ce 053d b8f7 913d da09 93bc 324f 973d
000002f0: 67c9 843d ba2b 74bc d787 053d 5998 64bd
00000300: 8863 c8bb 52b1 58bd d65a 72bd 5680 a1bc
00000310: b91d 73bd 031f 503d 4144 9a3c 276b b13d
00000320: db7d e5bb c7d8 7bbd 1665 dbbd 1be3 5dbd
00000330: 2d69 8cbd 4c7e 8d3d 5cac f7bc 32ca cd3b
00000340: 35a9 0dbe e192 65bd f090 ed3d 0e72 d43c
00000350: e55c 8cbc d7bf 1a3d 7b6c 99bd fdf7 43bc
00000360: 93cc e03d 2981 523b 4193 1a3d 12d4 2fbd
00000370: 8094 c83c c764 b13d 5429 c23c 70d0 7f3d
00000380: 0359 3fbc ac12 38bc 7ce5 51bc 1325 463c
00000390: 24dc d9bc 6be5 5f3d c01e c1bd 0cb4 f63d
000003a0: 9246 41bd eebf 08bd 0a01 46bd 5fe5 943d
000003b0: e323 593c 06f9 8f3b f571 243d 8d17 66ba
000003c0: ce50 aebd 7783 9bbd 6c0e 72bd 83bf 453d
000003d0: 0e59 78bd c56c 7ebd b9d5 06bc 5468 58bc
000003e0: 81a4 12bd d265 5c3c 55ad f23c d79c 95bb
000003f0: 2c7c 7e3b 04fd b2bd 6631 3a3d a365 01bd

layer_stack.3.bias f4 [64]
0.109176084 0.13975488 0.16926077 0.18374735 0.070390925 0.12097106 0.029347334 0.027636724
0.13121933 0.13054153 0.071066864 0.20266165 -0.027912479 -0.105801344 -0.08343951 0.11321617
0.15215524 0.12414378 0.08986857 0.15580866 0.092079684 0.104448766 -0.09312639 0.21648493
-0.12844616 0.15436393 0.14052363 0.17277163 0.0023634536 0.028163932 -0.012202335 -0.069752
0.19144227 -0.029205106 -0.042681146 0.08437024 0.12569723 -0.13426395 -0.07661363 0.07695875
0.05505572 -0.05293471 0.0021149237 0.12078699 0.18324856 0.17053491 -0.00447384 0.12306366
0.15029123 0.17690702 0.07827742 0.04946253 -0.059335068 0.14254987 0.07537971 0.13708003
0.018415106 0.14751378 -0.0029684906 0.10746659 0.053442743 0.0848237 0.012575184 0.19984731
00000000: b697 df3d e71b 0f3e b252 2d3e 4428 3c3e
00000010: 1e29 903d adbf f73d d269 f03c 6966 e23c
00000020: 5c5e 063e aeac 053e 818b 913d 8986 4f3e
00000030: b6a8 e4bc 60ae d8bd 55e2 aabd e1dd e73d
00000040: 95ce 1b3e 183f fe3d 030d b83d 4e8c 1f3e
00000050: 4694 bc3d 3ce9 d53d 0cb9 bebd 3aae 5d3e
00000060: 6487 03be 9411 1e3e 6de5 0f3e 0ceb 303e
00000070: 2ce4 1a3b 0cb8 e63c 4dec 47bc 23da 8ebd
00000080: 7109 443e 8c3f efbc 6dd2 2ebd 4eca ac3d
00000090: c6b6 003e 7d7c 09be 9be7 9cbd 8d9c 9d3d
000000a0: 1b82 613d 11d2 58bd 889a 0a3b 2b5f f73d
000000b0: 83a5 3b3e b4a0 2e3e 4a99 92bb cd08 fc3d
000000c0: f2e5 193e 1d27 353e e94f a03d 3999 4a3d
000000d0: 5409 73bd 98f8 113e ad60 9a3d b55e 0c3e
000000e0: 47db 963c da0d 173e 028b 42bb 7217 dc3d
000000f0: c7e6 5a3d 0cb8 ad3d 2508 4e3c c6a4 4c3e

layer_stack.6.weight f4 [32, 64]
0.016019974 0.015798641 -0.08918872 0.008348394 -0.12387928 0.08657707 -0.089800775 0.053703632
0.029836139 -0.17772016 -0.089499354 0.069841065 0.09183627 0.12230207 0.008529765 -0.09518675
-0.07056748 0.0059982524 0.018684296 -0.07146723 -0.0107353525 -0.002772755 0.109162286 0.030555483
-0.103393435 0.0140574025 0.13312402 -0.10257495 -0.053098235 0.03209594 0.05629952 0.117302485
0.03527478 0.05617502 0.0732444 -0.08726209 -0.07682294 -0.08424054 0.0851739 0.10732747
0.119185045 0.038475346 0.13773504 -0.06223735 -0.051525284 0.007932223 -0.021706233 -0.10921833
-0.12760559 -0.08931039 -0.04072966 0.010206745 0.039416786 -0.026981646 -0.16958158 -0.021453992
-0.043338683 0.058637243 0.08168872 -0.09811282 0.0018799428 -0.015191944 0.05012125 0.032363236
0.0066957287 -0.0033846006 -0.11099484 -0.13080856 -0.08032017 0.09638973 -0.03292092 0.099472366
0.036021866 -0.023726318 0.08204055 -0.04471075 0.118412875 0.03713551 -0.06163616 -0.11963346
-0.04812628 -0.12525989 0.056381617 -0.041396756 -0.051212214 0.008301105 -0.020124268 0.048138324
0.018016873 -0.09382519 0.1264428 -0.07954706 0.07978538 0.086780146 0.007467656 -0.050644267
-0.0624287 0.13912672 -0.019307436 -0.13404311 0.04949906 0.024963578 0.05361929 -0.06033151
0.11715463 0.029335149 -0.008261974 -0.056761492 -0.05492079 -0.009652684 0.14934914 -0.08164123
-0.120443106 0.05980464 -0.06659756 0.1698769 0.100741416 -0.023877038 -0.20026712 -0.1284429
0.045345508 0.08328824 0.1082501 0.025950067 -0.09717975 -0.07004634 0.10593361 -0.047829654
0.1066834 0.12010027 -0.022916744 0.09819872 0.11085195 0.05943311 -0.06685319 -0.17250921
-0.112561524 0.05620276 -0.03515461 0.044750948 -0.1254715 -0.19608665 -0.1744386 0.10221185
0.051080164 0.07233671 -0.094333135 0.04578689 -0.007310333 0.05849303 -0.00012894938 0.16276132
0.007937194 0.00028413945 0.069220476 -0.04030588 -0.10376014 -0.059093833 -0.089197986 -0.013298137
0.13129027 -0.13461357 -0.15925978 0.12052239 -0.050430056 -0.1016657 -0.03503806 0.08981494
-0.009304886 -0.15324028 -0.1420093 0.06811518 0.033355083 -0.040830623 -0.14848575 0.15868744
0.08353095 -0.018035086 -0.026917165 -0.11730745 -0.13157615 0.0102269575 0.054544125 0.034618467
-0.042798497 0.14836048 -0.10889686 0.122530624 -0.05770226 0.04279828 0.0295896 -0.0055678776
0.06093986 -0.11360489 -0.079288684 0.017415851 -0.06859996 -0.109635726 0.061153427 -0.115379624
-0.09630724 -0.01511407 -0.11748871 0.035488993 -0.010565528 -0.0047287066 -0.04206463 -0.0053215483
-0.058020387 0.023789378 0.04704838 -0.11588617 -0.11379232 0.029290065 -0.048469108 0.018266952
-0.15026999 -0.056391083 -0.12155311 -0.11837296 0.12874606 0.11350365 -0.13712454 -0.05285615
0.011246741 -0.09662866 0.11988665 -0.03970055 -0.07003861 0.07207498 -0.054873142 0.053090826
0.10233574 0.024493137 -0.027382353 -0.111316115 0.05459069 0.038007934 -0.02745828 -0.10267686
-0.09554267 0.079351805 -0.0715635 0.07015612 0.08316455 -0.015965825 -0.13906442 0.09033703
-0.041044943 -0.022737373 0.11050374 -0.05294104 -0.10692201 -0.067549795 -0.07755805 0.06518862
00000000: 523c 833c 276c 813c 93a8 b6bd b4c7 083c
00000010: 6cb4 fdbd 524f b13d 78e9 b7bd 57f8 5b3d
00000020: eb6a f43c 46fc 35be 704b b7bd d508 8f3d
00000030: a814 bc3d 8279 fa3d 6dc0 0b3c 45f1 c2bd
00000040: af85 90bd fd8c c43b cf0f 993c 695d 92bd
00000050: 55e3 2fbc 1cb7 35bb 7a90 df3d 7e4f fa3c
00000060: f0bf d3bd 0551 663c aa51 083e d112 d2bd
00000070: 897d 59bd 0877 033d 539a 663d 493c f03d
00000080: 4a7c 103d c717 663d 2901 963d 77b6 b2bd
00000090: 5855 9dbd 4e86 acbd a76f ae3d 81ce db3d
000000a0: 4a17 f43d 5398 1d3d 6a0a 0d3e 97ec 7ebd
000000b0: 2d0c 53bd 28f6 013c 45d1 b1bc dcad dfbd
000000c0: 0aab 02be 5ee8 b6bd 25d4 26bd 313a 273c
000000d0: 7f73 213d 9d08 ddbc cba6 2dbe 48c0 afbc
000000e0: e783 31bd 9b2d 703d 6a4c a73d 60ef c8bd
000000f0: 6a68 f63a a2e7 78bc f14b 4d3d 508f 043d
00000100: d867 db3b 2dd0 5dbb 4351 e3bd aef2 05be
00000110: e77e a4bd fb67 c53d 16d8 06bd 2bb8 cb3d
00000120: aa8b 133d b25d c2bc e004 a83d 9f22 37bd
00000130: 7382 f23d 681b 183d 3376 7cbd 6302 f5bd
00000140: 1020 45bd 2144 00be 69f0 663d a58f 29bd
00000150: e6c3 51bd 5c01 083c a6db a4bc b12c 453d
00000160: 1f98 933c 6c27 c0bd 397a 013e 92e9 a2bd
00000170: 8466 a33d cab9 b13d 3db3 f43b 5d70 4fbd
00000180: 3db5 7fbd 3c77 0e3e a12a 9ebc 9942 09be
00000190: 87bf 4a3d 6b80 cc3c e79f 5b3d 2c1e 77bd
000001a0: c4ee ef3d 4450 f03c 3b5d 07bc bd7e 68bd
000001b0: 9ff4 60bd 4b26 1ebc fbee 183e 8433 a7bd
000001c0: e0aa f6bd b6f5 743d 4d64 88bd 36f4 2d3e
000001d0: 8451 ce3d c799 c3bc d312 4dbe 8986 03be
000001e0: 36bc 393d 0693 aa3d 3ab2 dd3d 3c95 d43c
000001f0: 2d06 c7bd 7574 8fbd b8f3 d83d 07e9 43bd
00000200: d47c da3d 21f7 f53d e5bb bbbc 691c c93d
00000210: 5906 e33d 2270 733d 53ea 88bd 41a6 30be
00000220: a886 e6bd de34 663d 48fe 0fbd c54c 373d
00000230: 9a7b 00be f0ca 48be 08a0 32be 7254 d13d
00000240: 6f39 513d 4525 943d bb31 c1bd 098b 3b3d
00000250: 858b efbb 6396 6f3d 9636 07b9 e7aa 263e
00000260: 010b 023c 8df8 9439 77c3 8d3d c717 25bd
00000270: 3280 d4bd 600c 72bd 6fad b6bd 6ee0 59bc
00000280: f570 063e 24d8 09be ff14 23be 71d4 f63d
00000290: bf8f 4ebd 1b36 d0bd 1284 0fbd e5f0 b73d
000002a0: 8573 18bc 05eb 1cbe e36a 11be f97f 8b3d
000002b0: 579f 083d 033e 27bd a60c 18be f67e 223e
000002c0: 4612 ab3d 51be 93bc 6381 dcbc e33e f0bd
000002d0: e6bb 06be f88e 273c a969 5f3d 18cc 0d3d
000002e0: 7a4d 2fbd cfeb 173e 5105 dfbd 56f1 fa3d
000002f0: 3459 6cbd 404d 2f3d e465 f23c be72 b6bb
00000300: 139c 793d aea9 e8bd 1b62 a2bd b0ab 8e3c
00000310: 237e 8cbd b288 e0bd 047c 7a3d 274c ecbd
00000320: bb3c c5bd 01a1 77bc ec9d f0bd e85c 113d
00000330: 091b 2dbc 44f3 9abb f64b 2cbd 6260 aebb
00000340: c9a6 6dbd f1e1 c23c cdb5 403d ba55 edbd
00000350: f30b e9bd b8f1 ef3c 8b87 46bd 93a4 953c
00000360: 60e0 19be 56fa 66bd d6f0 f8bd 866d f2bd
00000370: 02d6 033e 9a74 e83d 606a 0cbe b17f 58bd
00000380: 4044 383c 3fe5 c5bd 2287 f53d 0b9d 22bd
00000390: 6770 8fbd 0c9c 933d a9c2 60bd c475 593d
000003a0: 6795 d13d d5a5 c83c f550 e0bc b4f9 e3bd
000003b0: 7d9a 5f3d 35ae 1b3d 30f0 e0bc 3f48 d2bd
000003c0: e0ab c3bd 3383 a23d e28f 92bd 03ae 8f3d
000003d0: 2d52 aa3d c3ca 82bc e766 0ebe 9f02 b93d
000003e0: be1e 28bd ba43 babc c94f e23d b4d8 58bd
000003f0: edf9 dabd 8c57 8abd c1d6 9ebd 9c81 853d

layer_stack.6.bias f4 [32]
0.048098374 0.028733548 0.38140112 0.11396004 0.2907754 -0.010158537 0.15136856 0.27506375
0.19038634 0.17302604 0.10777442 0.027394475 0.1426086 -0.00029836321 0.384004 0.06590729
0.089420065 0.17689508 0.24888405 0.32828557 0.2801082 0.2902845 0.20846039 0.30754066
0.017963136 0.30658966 0.042252332 0.10083745 0.2690797 0.30340624 0.21948102 0.14756484
00000000: cd02 453d 9e62 eb3c 0247 c33e e263 e93d
00000010: 83e0 943e fe6f 26bc 5c00 1b3e 28d5 8c3e
00000020: a3f4 423e bd2d 313e d6b8 dc3d 616a e03c
00000030: fd07 123e a26d 9cb9 2c9c c43e 67fa 863d
00000040: de21 b73d fc23 353e 76db 7e3e 0c15 a83e
00000050: 586a 8f3e 2ca0 943e a476 553e f875 9d3e
00000060: 6d27 933c 52f9 9c3e c810 2d3d dd83 ce3d
00000070: d0c4 893e 1058 9b3e a2bf 603e 3d1b 173e

layer_stack.8.weight f4 [1, 32]
0.17672035 0.15231025 -0.19164813 0.17760493 -0.2061458 0.109695256 0.12957019 -0.1937831
-0.21443579 0.22594564 0.17183883 0.07959788 0.18567684 0.17081238 -0.2302144 0.121317856
0.18358397 0.09166984 -0.24450499 -0.23543501 -0.1484944 -0.19753133 -0.21235189 -0.1468798
0.05920815 -0.096334465 0.20855768 0.14297415 -0.13383988 -0.110386826 -0.109461404 0.2053815
00000000: 2ef6 343e 38f7 1b3e 683f 44be 11de 353e
00000010: e217 53be e8a7 e03d 0cae 043e 146f 46be
00000020: 0e95 5bbe 4b5e 673e 85f6 2f3e 3704 a33d
00000030: 1222 3e3e 71e9 2e3e 53bd 6bbe 7f75 f83d
00000040: 70fd 3b3e 66bd bb3d 845f 7abe e015 71be
00000050: ea0e 18be a745 4abe c672 59be a967 16be
00000060: 3f84 723d 014b c5bd 2590 553e d167 123e
00000070: 520d 09be 7d12 e2bd 4d2d e0bd 874f 523e
